/home/ada/test/DeepShift/pytorch/cifar10.py:155: UserWarning: You have chosen a specific GPU. This will completely disable data parallelism.
  warnings.warn('You have chosen a specific GPU. This will completely '
Unable to import CPU and/or CUDA bit-wise shift kernels
Unable to import CUDA unoptimized kernels
Use GPU: 0 for training
=> creating model 'resnet18'
----------------------------------------------------------------
        Layer (type)               Output Shape         Param #
================================================================
            Conv2d-1           [-1, 64, 32, 32]           1,728
       BatchNorm2d-2           [-1, 64, 32, 32]             256
            Conv2d-3           [-1, 64, 32, 32]          36,864
       BatchNorm2d-4           [-1, 64, 32, 32]             256
            Conv2d-5           [-1, 64, 32, 32]          36,864
       BatchNorm2d-6           [-1, 64, 32, 32]             256
        BasicBlock-7           [-1, 64, 32, 32]               0
            Conv2d-8           [-1, 64, 32, 32]          36,864
       BatchNorm2d-9           [-1, 64, 32, 32]             256
           Conv2d-10           [-1, 64, 32, 32]          36,864
      BatchNorm2d-11           [-1, 64, 32, 32]             256
       BasicBlock-12           [-1, 64, 32, 32]               0
           Conv2d-13          [-1, 128, 16, 16]          73,728
      BatchNorm2d-14          [-1, 128, 16, 16]             512
           Conv2d-15          [-1, 128, 16, 16]         147,456
      BatchNorm2d-16          [-1, 128, 16, 16]             512
      LambdaLayer-17          [-1, 128, 16, 16]               0
       BasicBlock-18          [-1, 128, 16, 16]               0
           Conv2d-19          [-1, 128, 16, 16]         147,456
      BatchNorm2d-20          [-1, 128, 16, 16]             512
           Conv2d-21          [-1, 128, 16, 16]         147,456
      BatchNorm2d-22          [-1, 128, 16, 16]             512
       BasicBlock-23          [-1, 128, 16, 16]               0
           Conv2d-24            [-1, 256, 8, 8]         294,912
      BatchNorm2d-25            [-1, 256, 8, 8]           1,024
           Conv2d-26            [-1, 256, 8, 8]         589,824
      BatchNorm2d-27            [-1, 256, 8, 8]           1,024
      LambdaLayer-28            [-1, 256, 8, 8]               0
       BasicBlock-29            [-1, 256, 8, 8]               0
           Conv2d-30            [-1, 256, 8, 8]         589,824
      BatchNorm2d-31            [-1, 256, 8, 8]           1,024
           Conv2d-32            [-1, 256, 8, 8]         589,824
      BatchNorm2d-33            [-1, 256, 8, 8]           1,024
       BasicBlock-34            [-1, 256, 8, 8]               0
           Conv2d-35            [-1, 512, 4, 4]       1,179,648
      BatchNorm2d-36            [-1, 512, 4, 4]           2,048
           Conv2d-37            [-1, 512, 4, 4]       2,359,296
      BatchNorm2d-38            [-1, 512, 4, 4]           2,048
      LambdaLayer-39            [-1, 512, 4, 4]               0
       BasicBlock-40            [-1, 512, 4, 4]               0
           Conv2d-41            [-1, 512, 4, 4]       2,359,296
      BatchNorm2d-42            [-1, 512, 4, 4]           2,048
           Conv2d-43            [-1, 512, 4, 4]       2,359,296
      BatchNorm2d-44            [-1, 512, 4, 4]           2,048
       BasicBlock-45            [-1, 512, 4, 4]               0
           Linear-46                   [-1, 10]           5,130
================================================================
Total params: 11,007,946
Trainable params: 11,007,946
Non-trainable params: 0
----------------------------------------------------------------
Input size (MB): 0.01
Forward/backward pass size (MB): 10.81
Params size (MB): 41.99
Estimated Total Size (MB): 52.82
----------------------------------------------------------------

WARNING: The summary function reports duplicate parameters for multi-GPU case
…
Total Time: 2688.544246196747
/home/ada/test/DeepShift/pytorch/cifar10.py:155: UserWarning: You have chosen a specific GPU. This will completely disable data parallelism.
  warnings.warn('You have chosen a specific GPU. This will completely '
Unable to import CPU and/or CUDA bit-wise shift kernels
Unable to import CUDA unoptimized kernels
Use GPU: 0 for training
=> creating model 'resnet50'
----------------------------------------------------------------
        Layer (type)               Output Shape         Param #
================================================================
            Conv2d-1           [-1, 64, 32, 32]           1,728
       BatchNorm2d-2           [-1, 64, 32, 32]             256
            Conv2d-3           [-1, 64, 32, 32]           4,096
       BatchNorm2d-4           [-1, 64, 32, 32]             256
            Conv2d-5           [-1, 64, 32, 32]          36,864
       BatchNorm2d-6           [-1, 64, 32, 32]             256
            Conv2d-7          [-1, 256, 32, 32]          16,384
       BatchNorm2d-8          [-1, 256, 32, 32]           1,024
            Conv2d-9          [-1, 256, 32, 32]          16,384
      BatchNorm2d-10          [-1, 256, 32, 32]           1,024
       Bottleneck-11          [-1, 256, 32, 32]               0
           Conv2d-12           [-1, 64, 32, 32]          16,384
      BatchNorm2d-13           [-1, 64, 32, 32]             256
           Conv2d-14           [-1, 64, 32, 32]          36,864
      BatchNorm2d-15           [-1, 64, 32, 32]             256
           Conv2d-16          [-1, 256, 32, 32]          16,384
      BatchNorm2d-17          [-1, 256, 32, 32]           1,024
       Bottleneck-18          [-1, 256, 32, 32]               0
           Conv2d-19           [-1, 64, 32, 32]          16,384
      BatchNorm2d-20           [-1, 64, 32, 32]             256
           Conv2d-21           [-1, 64, 32, 32]          36,864
      BatchNorm2d-22           [-1, 64, 32, 32]             256
           Conv2d-23          [-1, 256, 32, 32]          16,384
      BatchNorm2d-24          [-1, 256, 32, 32]           1,024
       Bottleneck-25          [-1, 256, 32, 32]               0
           Conv2d-26          [-1, 128, 32, 32]          32,768
      BatchNorm2d-27          [-1, 128, 32, 32]             512
           Conv2d-28          [-1, 128, 16, 16]         147,456
      BatchNorm2d-29          [-1, 128, 16, 16]             512
           Conv2d-30          [-1, 512, 16, 16]          65,536
      BatchNorm2d-31          [-1, 512, 16, 16]           2,048
           Conv2d-32          [-1, 512, 16, 16]         131,072
      BatchNorm2d-33          [-1, 512, 16, 16]           2,048
       Bottleneck-34          [-1, 512, 16, 16]               0
           Conv2d-35          [-1, 128, 16, 16]          65,536
      BatchNorm2d-36          [-1, 128, 16, 16]             512
           Conv2d-37          [-1, 128, 16, 16]         147,456
      BatchNorm2d-38          [-1, 128, 16, 16]             512
           Conv2d-39          [-1, 512, 16, 16]          65,536
      BatchNorm2d-40          [-1, 512, 16, 16]           2,048
       Bottleneck-41          [-1, 512, 16, 16]               0
           Conv2d-42          [-1, 128, 16, 16]          65,536
      BatchNorm2d-43          [-1, 128, 16, 16]             512
           Conv2d-44          [-1, 128, 16, 16]         147,456
      BatchNorm2d-45          [-1, 128, 16, 16]             512
           Conv2d-46          [-1, 512, 16, 16]          65,536
      BatchNorm2d-47          [-1, 512, 16, 16]           2,048
       Bottleneck-48          [-1, 512, 16, 16]               0
           Conv2d-49          [-1, 128, 16, 16]          65,536
      BatchNorm2d-50          [-1, 128, 16, 16]             512
           Conv2d-51          [-1, 128, 16, 16]         147,456
      BatchNorm2d-52          [-1, 128, 16, 16]             512
           Conv2d-53          [-1, 512, 16, 16]          65,536
      BatchNorm2d-54          [-1, 512, 16, 16]           2,048
       Bottleneck-55          [-1, 512, 16, 16]               0
           Conv2d-56          [-1, 256, 16, 16]         131,072
      BatchNorm2d-57          [-1, 256, 16, 16]           1,024
           Conv2d-58            [-1, 256, 8, 8]         589,824
      BatchNorm2d-59            [-1, 256, 8, 8]           1,024
           Conv2d-60           [-1, 1024, 8, 8]         262,144
      BatchNorm2d-61           [-1, 1024, 8, 8]           4,096
           Conv2d-62           [-1, 1024, 8, 8]         524,288
      BatchNorm2d-63           [-1, 1024, 8, 8]           4,096
       Bottleneck-64           [-1, 1024, 8, 8]               0
           Conv2d-65            [-1, 256, 8, 8]         262,144
      BatchNorm2d-66            [-1, 256, 8, 8]           1,024
           Conv2d-67            [-1, 256, 8, 8]         589,824
      BatchNorm2d-68            [-1, 256, 8, 8]           1,024
           Conv2d-69           [-1, 1024, 8, 8]         262,144
      BatchNorm2d-70           [-1, 1024, 8, 8]           4,096
       Bottleneck-71           [-1, 1024, 8, 8]               0
           Conv2d-72            [-1, 256, 8, 8]         262,144
      BatchNorm2d-73            [-1, 256, 8, 8]           1,024
           Conv2d-74            [-1, 256, 8, 8]         589,824
      BatchNorm2d-75            [-1, 256, 8, 8]           1,024
           Conv2d-76           [-1, 1024, 8, 8]         262,144
      BatchNorm2d-77           [-1, 1024, 8, 8]           4,096
       Bottleneck-78           [-1, 1024, 8, 8]               0
           Conv2d-79            [-1, 256, 8, 8]         262,144
      BatchNorm2d-80            [-1, 256, 8, 8]           1,024
           Conv2d-81            [-1, 256, 8, 8]         589,824
      BatchNorm2d-82            [-1, 256, 8, 8]           1,024
           Conv2d-83           [-1, 1024, 8, 8]         262,144
      BatchNorm2d-84           [-1, 1024, 8, 8]           4,096
       Bottleneck-85           [-1, 1024, 8, 8]               0
           Conv2d-86            [-1, 256, 8, 8]         262,144
      BatchNorm2d-87            [-1, 256, 8, 8]           1,024
           Conv2d-88            [-1, 256, 8, 8]         589,824
      BatchNorm2d-89            [-1, 256, 8, 8]           1,024
           Conv2d-90           [-1, 1024, 8, 8]         262,144
      BatchNorm2d-91           [-1, 1024, 8, 8]           4,096
       Bottleneck-92           [-1, 1024, 8, 8]               0
           Conv2d-93            [-1, 256, 8, 8]         262,144
      BatchNorm2d-94            [-1, 256, 8, 8]           1,024
           Conv2d-95            [-1, 256, 8, 8]         589,824
      BatchNorm2d-96            [-1, 256, 8, 8]           1,024
           Conv2d-97           [-1, 1024, 8, 8]         262,144
      BatchNorm2d-98           [-1, 1024, 8, 8]           4,096
       Bottleneck-99           [-1, 1024, 8, 8]               0
          Conv2d-100            [-1, 512, 8, 8]         524,288
     BatchNorm2d-101            [-1, 512, 8, 8]           2,048
          Conv2d-102            [-1, 512, 4, 4]       2,359,296
     BatchNorm2d-103            [-1, 512, 4, 4]           2,048
          Conv2d-104           [-1, 2048, 4, 4]       1,048,576
     BatchNorm2d-105           [-1, 2048, 4, 4]           8,192
          Conv2d-106           [-1, 2048, 4, 4]       2,097,152
     BatchNorm2d-107           [-1, 2048, 4, 4]           8,192
      Bottleneck-108           [-1, 2048, 4, 4]               0
          Conv2d-109            [-1, 512, 4, 4]       1,048,576
     BatchNorm2d-110            [-1, 512, 4, 4]           2,048
          Conv2d-111            [-1, 512, 4, 4]       2,359,296
     BatchNorm2d-112            [-1, 512, 4, 4]           2,048
          Conv2d-113           [-1, 2048, 4, 4]       1,048,576
     BatchNorm2d-114           [-1, 2048, 4, 4]           8,192
      Bottleneck-115           [-1, 2048, 4, 4]               0
          Conv2d-116            [-1, 512, 4, 4]       1,048,576
     BatchNorm2d-117            [-1, 512, 4, 4]           2,048
          Conv2d-118            [-1, 512, 4, 4]       2,359,296
     BatchNorm2d-119            [-1, 512, 4, 4]           2,048
          Conv2d-120           [-1, 2048, 4, 4]       1,048,576
     BatchNorm2d-121           [-1, 2048, 4, 4]           8,192
      Bottleneck-122           [-1, 2048, 4, 4]               0
          Linear-123                   [-1, 10]          20,490
================================================================
Total params: 23,573,962
Trainable params: 23,573,962
Non-trainable params: 0
----------------------------------------------------------------
Input size (MB): 0.01
Forward/backward pass size (MB): 66.13
Params size (MB): 89.93
Estimated Total Size (MB): 156.06
----------------------------------------------------------------

WARNING: The summary function reports duplicate parameters for multi-GPU case
…
