/home/ada/test/DeepShift/pytorch/cifar10.py:155: UserWarning: You have chosen a specific GPU. This will completely disable data parallelism.
  warnings.warn('You have chosen a specific GPU. This will completely '
Unable to import CPU and/or CUDA bit-wise shift kernels
Unable to import CUDA unoptimized kernels
Use GPU: 0 for training
=> creating model 'resnet18'
----------------------------------------------------------------
        Layer (type)               Output Shape         Param #
================================================================
       Conv2dShift-1           [-1, 64, 32, 32]           1,728
       BatchNorm2d-2           [-1, 64, 32, 32]             256
       Conv2dShift-3           [-1, 64, 32, 32]          36,864
       BatchNorm2d-4           [-1, 64, 32, 32]             256
       Conv2dShift-5           [-1, 64, 32, 32]          36,864
       BatchNorm2d-6           [-1, 64, 32, 32]             256
        BasicBlock-7           [-1, 64, 32, 32]               0
       Conv2dShift-8           [-1, 64, 32, 32]          36,864
       BatchNorm2d-9           [-1, 64, 32, 32]             256
      Conv2dShift-10           [-1, 64, 32, 32]          36,864
      BatchNorm2d-11           [-1, 64, 32, 32]             256
       BasicBlock-12           [-1, 64, 32, 32]               0
      Conv2dShift-13          [-1, 128, 16, 16]          73,728
      BatchNorm2d-14          [-1, 128, 16, 16]             512
      Conv2dShift-15          [-1, 128, 16, 16]         147,456
      BatchNorm2d-16          [-1, 128, 16, 16]             512
      LambdaLayer-17          [-1, 128, 16, 16]               0
       BasicBlock-18          [-1, 128, 16, 16]               0
      Conv2dShift-19          [-1, 128, 16, 16]         147,456
      BatchNorm2d-20          [-1, 128, 16, 16]             512
      Conv2dShift-21          [-1, 128, 16, 16]         147,456
      BatchNorm2d-22          [-1, 128, 16, 16]             512
       BasicBlock-23          [-1, 128, 16, 16]               0
      Conv2dShift-24            [-1, 256, 8, 8]         294,912
      BatchNorm2d-25            [-1, 256, 8, 8]           1,024
      Conv2dShift-26            [-1, 256, 8, 8]         589,824
      BatchNorm2d-27            [-1, 256, 8, 8]           1,024
      LambdaLayer-28            [-1, 256, 8, 8]               0
       BasicBlock-29            [-1, 256, 8, 8]               0
      Conv2dShift-30            [-1, 256, 8, 8]         589,824
      BatchNorm2d-31            [-1, 256, 8, 8]           1,024
      Conv2dShift-32            [-1, 256, 8, 8]         589,824
      BatchNorm2d-33            [-1, 256, 8, 8]           1,024
       BasicBlock-34            [-1, 256, 8, 8]               0
      Conv2dShift-35            [-1, 512, 4, 4]       1,179,648
      BatchNorm2d-36            [-1, 512, 4, 4]           2,048
      Conv2dShift-37            [-1, 512, 4, 4]       2,359,296
      BatchNorm2d-38            [-1, 512, 4, 4]           2,048
      LambdaLayer-39            [-1, 512, 4, 4]               0
       BasicBlock-40            [-1, 512, 4, 4]               0
      Conv2dShift-41            [-1, 512, 4, 4]       2,359,296
      BatchNorm2d-42            [-1, 512, 4, 4]           2,048
      Conv2dShift-43            [-1, 512, 4, 4]       2,359,296
      BatchNorm2d-44            [-1, 512, 4, 4]           2,048
       BasicBlock-45            [-1, 512, 4, 4]               0
      LinearShift-46                   [-1, 10]           5,130
================================================================
Total params: 11,007,946
Trainable params: 11,007,946
Non-trainable params: 0
----------------------------------------------------------------
Input size (MB): 0.01
Forward/backward pass size (MB): 10.81
Params size (MB): 6.61
Estimated Total Size (MB): 17.44
----------------------------------------------------------------

WARNING: The summary function reports duplicate parameters for multi-GPU case
…
